…
Comet: run 'pip install comet_ml' to automatically track and visualize YOLOv5 🚀 runs in Comet
TensorBoard: Start with 'tensorboard --logdir runs/train', view at http://localhost:6006/
2023-02-17 07:26:26.594127: I tensorflow/stream_executor/platform/default/dso_loader.cc:49] Successfully opened dynamic library libcudart.so.11.0
WARNING:tensorflow:Deprecation warnings have been disabled. Set TF_ENABLE_DEPRECATION_WARNINGS=1 to re-enable them.
Overriding model.yaml nc=80 with nc=2

                 from  n    params  module                                  arguments                     
  0                -1  1      1760  models.common.Conv                      [3, 16, 6, 2, 2]              
  1                -1  1      4672  models.common.Conv                      [16, 32, 3, 2]                
  2                -1  1      4800  models.common.C3                        [32, 32, 1]                   
  3                -1  1     18560  models.common.Conv                      [32, 64, 3, 2]                
  4                -1  2     29184  models.common.C3                        [64, 64, 2]                   
  5                -1  1     73984  models.common.Conv                      [64, 128, 3, 2]               
  6                -1  3    156928  models.common.C3                        [128, 128, 3]                 
  7                -1  1    221568  models.common.Conv                      [128, 192, 3, 2]              
  8                -1  1    167040  models.common.C3                        [192, 192, 1]                 
  9                -1  1    442880  models.common.Conv                      [192, 256, 3, 2]              
 10                -1  1    296448  models.common.C3                        [256, 256, 1]                 
 11                -1  1    164608  models.common.SPPF                      [256, 256, 5]                 
 12                -1  1     49536  models.common.Conv                      [256, 192, 1, 1]              
 13                -1  1         0  torch.nn.modules.upsampling.Upsample    [None, 2, 'nearest']          
 14           [-1, 8]  1         0  models.common.Concat                    [1]                           
 15                -1  1    203904  models.common.C3                        [384, 192, 1, False]          
 16                -1  1     24832  models.common.Conv                      [192, 128, 1, 1]              
 17                -1  1         0  torch.nn.modules.upsampling.Upsample    [None, 2, 'nearest']          
 18           [-1, 6]  1         0  models.common.Concat                    [1]                           
 19                -1  1     90880  models.common.C3                        [256, 128, 1, False]          
 20                -1  1      8320  models.common.Conv                      [128, 64, 1, 1]               
 21                -1  1         0  torch.nn.modules.upsampling.Upsample    [None, 2, 'nearest']          
 22           [-1, 4]  1         0  models.common.Concat                    [1]                           
 23                -1  1     22912  models.common.C3                        [128, 64, 1, False]           
 24                -1  1     36992  models.common.Conv                      [64, 64, 3, 2]                
 25          [-1, 20]  1         0  models.common.Concat                    [1]                           
 26                -1  1     74496  models.common.C3                        [128, 128, 1, False]          
 27                -1  1    147712  models.common.Conv                      [128, 128, 3, 2]              
 28          [-1, 16]  1         0  models.common.Concat                    [1]                           
 29                -1  1    179328  models.common.C3                        [256, 192, 1, False]          
 30                -1  1    332160  models.common.Conv                      [192, 192, 3, 2]              
 31          [-1, 12]  1         0  models.common.Concat                    [1]                           
 32                -1  1    329216  models.common.C3                        [384, 256, 1, False]          
 33  [23, 26, 29, 32]  1     13524  models.yolo.Detect                      [2, [[19, 27, 44, 40, 38, 94], [96, 68, 86, 152, 180, 137], [140, 301, 303, 264, 238, 542], [436, 615, 739, 380, 925, 792]], [64, 128, 192, 256]]
Model summary: 281 layers, 3096244 parameters, 3096244 gradients, 4.3 GFLOPs

Transferred 451/459 items from yolov5n6.pt
AMP: checks passed ✅
optimizer: SGD(lr=0.01) with parameter groups 75 weight(decay=0.0), 79 weight(decay=0.0005), 79 bias
…
